ml/check-fake.pt (torch, 453876 bytes, 10 tensors)

weight f4 [1024, 64]
-0.04997596 -0.3582663 -0.29846564 -1.2372915 -1.0539014 -0.4574987 0.50606793 -0.14691651
1.0400656 1.8003922 1.4947486 -0.8551762 2.015866 -0.33436194 0.37550306 -1.387017
1.8565049 -0.2746959 -0.20382404 -0.7621554 -0.14036761 -1.8221734 0.63778746 -0.15821616
-1.201382 0.7704458 0.7655284 -0.7273884 0.46489707 -1.208664 -0.6737333 -0.6146143
-1.4141662 -1.197187 0.44575784 -1.0763644 -0.67534405 1.748431 -1.6963577 0.33981878
0.71063566 -0.63800246 -1.6847048 -0.6902459 -0.6631316 0.0037051768 -1.3527126 0.029379293
0.65429467 -0.3312589 -0.6614328 0.37877002 -1.7503374 -1.3349217 1.0924444 -0.5510602
-0.9353851 2.0382996 0.4201248 0.33528996 -0.7645596 0.19928235 0.6482865 1.8229631
0.37620708 0.22951593 0.13239592 -0.025173647 1.7025985 -1.6333292 -0.2731274 0.46995205
0.07621531 1.0668293 1.1648366 1.683354 -0.5335067 -0.91840327 -1.694782 -0.29861948
-0.049317244 -2.3901472 -0.21094353 -0.09644753 0.12777956 0.17817359 0.7876705 0.48484388
1.5638727 -0.3495995 0.044012804 -0.5939478 0.2268881 -1.4222107 -0.8703592 0.1590505
-0.11971113 -1.0458736 -0.7931808 -1.3792388 0.8333678 -1.4315747 -0.5930533 1.1051315
1.557119 0.34491822 1.224023 0.97654486 0.45022985 -0.32170144 0.92885005 0.015219385
-1.9541852 0.6317786 0.74053305 -0.65213776 -0.8498037 -0.7598944 -0.8947781 -1.3248734
0.21465589 1.7200232 -0.61150604 2.093101 -0.69877124 0.21531007 0.00857121 -0.19133228
-1.2431902 0.6423053 -0.22167778 -0.8269098 -0.23057093 -1.515426 -1.3435137 -1.0444973
1.1147836 1.0039773 -0.34306312 -0.9030904 0.8151865 -0.21375178 1.2419349 -0.11187757
1.3475802 1.249043 -0.61141735 1.7279879 -0.8669862 -0.64529353 1.05498 1.713964
-0.04961463 1.5131477 -1.468759 0.9815678 0.029422194 -1.1420809 -1.1437045 -0.2079624
-1.0369633 -0.95822906 1.2785246 0.5064177 0.30133125 -0.4296404 1.9340527 0.9739334
0.6171669 0.18164562 -0.38651666 -1.1971502 -1.7017559 -0.87785923 -0.48571673 -0.48192155
-0.3786518 -0.6069387 -0.4676024 0.8069133 0.32950878 0.2911443 -1.3640357 0.066959955
-0.50147486 0.6095315 -0.40574783 -0.6684272 -0.28790253 2.0686948 0.42838627 0.40865454
-0.042493362 -0.29580745 -1.1010253 -2.6581333 -0.5040203 0.58434486 0.53157026 -0.5816943
-0.9627334 -0.10448071 0.12239088 1.4755358 0.8915174 -0.30474916 0.9206873 1.0317961
0.7365371 -0.034415692 1.0431123 2.0729392 -0.13880262 -2.1912107 1.0424592 -0.7973458
0.66426796 -0.121645615 -0.4035639 -1.4342952 2.338132 -0.43016854 -2.0749738 1.7474178
0.16835809 -0.33602238 -1.5094736 -0.32472312 0.050606597 0.29768497 -0.98646104 0.26912892
0.24961601 -0.22215939 -0.10031939 0.6263374 0.56217253 -0.42597988 0.3014136 -1.0923092
0.3562559 -0.3163854 -0.04229472 0.9686875 0.62993664 2.5552814 0.082224935 -0.6543375
0.8501288 -0.05924228 -0.21498764 -1.2029628 -0.55737036 0.12335895 -0.059373267 -0.24860148
00000000: 98b3 4cbd ae6e b7be 7dd0 98be 915f 9ebf
00000010: 3ee6 86bf 453d eabe ab8d 013f 4871 16be
00000020: df20 853f 4073 e63f ec53 bf3f d4ec 5abf
00000030: f303 0140 7d31 abbe f041 c03e c689 b1bf
00000040: f4a1 ed3f f1a4 8cbe 40b7 50be 9e1c 43bf
00000050: 87bc 0fbe fa3c e9bf 0a46 233f 6b03 22be
00000060: e3c6 99bf f03b 453f abf9 433f 2036 3abf
00000070: fd06 ee3e 80b5 9abf c979 2cbf 5d57 1dbf
00000080: 6603 b5bf 6c3d 99bf 5f3a e43e 4fc6 89bf
00000090: 59e3 2cbf 96cc df3f 4022 d9bf bafc ad3e
000000a0: 38ec 353f 2154 23bf 68a4 d7bf f5b3 30bf
000000b0: fec2 29bf 8dd2 723b b025 adbf d8ac f03c
000000c0: db7f 273f c49a a9be a953 29bf 25ee c13e
000000d0: 0e0b e0bf b7de aabf 38d5 8b3f 4812 0dbf
000000e0: 6675 6fbf 8073 0240 991a d73e 20ab ab3e
000000f0: 2eba 43bf ac10 4c3e 1bf6 253f db56 e93f
00000100: 379e c03e 3906 6b3e cc92 073e f738 cebc
00000110: bfee d93f ee10 d1bf 5bd7 8bbe 8e9d f03e
00000120: c616 9c3d dd8d 883f 5e19 953f 2578 d73f
00000130: e593 08bf 7a1c 6bbf 9eee d8bf a7e4 98be
00000140: e100 4abd 2cf8 18c0 9501 58be 4886 c5bd
00000150: a5d8 023e 2373 363e c6a4 493f 753d f83e
00000160: fb2c c83f b5fe b2be c546 343d f70c 18bf
00000170: 5b55 683e 000b b6bf dccf 5ebf 22de 223e
00000180: 1c2b f5bd 30df 85bf e60d 4bbf e68a b0bf
00000190: 9857 553f d73d b7bf 57d2 17bf f374 8d3f
000001a0: ad4f c73f 1f99 b03e c9ac 9c3f d8fe 793f
000001b0: 8784 e63e 0db6 a4be 1ec9 6d3f ba5a 793c
000001c0: be22 fabf 3ebc 213f 9393 3d3f 80f2 26bf
000001d0: bc8c 59bf 7088 42bf 2d10 65bf 7495 a9bf
000001e0: c1ce 5b3e b829 dc3f a98b 1cbf 5ef5 0540
000001f0: ace2 32bf 3e7a 5c3e 436e 0c3c 9cec 43be
00000200: db20 9fbf 1f6e 243f 80ff 62be 5cb0 53bf
00000210: c91a 6cbe 7bf9 c1bf 42f8 abbf 16b2 85bf
00000220: 3bb1 8e3f 5482 803f f8a5 afbe ef30 67bf
00000230: 10b0 503f bfe1 5abe b9f7 9e3f 1120 e5bd
00000240: 827d ac3f a4e0 9f3f d985 1cbf b52e dd3f
00000250: cff2 5dbf f531 25bf 9609 873f 2c63 db3f
00000260: b638 4bbd d3ae c13f 4b00 bcbf 0748 7b3f
00000270: d006 f13c b52f 92bf e964 92bf 18f4 54be
00000280: 37bb 84bf 804e 75bf b2a6 a33f 97a4 013f
00000290: 1748 9a3e d4f9 dbbe 0a8f f73f b353 793f
000002a0: a6fe 1d3f 4f01 3a3e 83e5 c5be 383c 99bf
000002b0: 23d3 d9bf 62bb 60bf ddaf f8be 6cbe f6be
000002c0: a6de c1be 5660 1bbf 9569 efbe df91 4e3f
000002d0: 60b5 a83e de10 953e b998 aebf 4d22 893d
000002e0: a860 00bf 420a 1c3f 2ebe cfbe 0c1e 2bbf
000002f0: f667 93be 7f65 0440 7255 db3e 2b3b d13e
00000300: 850d 2ebd 1374 97be 66ee 8cbf db1e 2ac0
00000310: 7907 01bf a097 153f fd14 083f ebe9 14bf
00000320: b275 76bf fcf9 d5bd 12a8 fa3d 5bde bc3f
00000330: 7c3a 643f 1508 9cbe 2ab2 6b3f e511 843f
00000340: b28d 3c3f 78f7 0cbd b484 853f 09ab 0440
00000350: 4622 0ebe cc3c 0cc0 4e6f 853f db1e 4cbf
00000360: 770d 2a3f 5621 f9bd ed9f cebe fc96 b7bf
00000370: f4a3 1540 0d3f dcbe 5fcc 04c0 63ab df3f
00000380: 1066 2c3e 200b acbe 6e36 c1bf 1c42 a6be
00000390: dd48 4f3d 2a6a 983e b688 7cbf 44cb 893e
000003a0: 579b 7f3e c07d 63be 4174 cdbd a657 203f
000003b0: 8aea 0f3f 091a dabe e252 9a3e cad0 8bbf
000003c0: 2c67 b63e 44fd a1be 3a3d 2dbd e7fb 773f
000003d0: 8743 213f bb89 2340 8c65 a83d aa82 27bf
000003e0: 0ba2 593f 08a8 72bd b825 5cbe affa 99bf
000003f0: d3af 0ebf 9ea3 fc3d 6231 73bd 6391 7ebe

weight f4 [64, 64, 3]
0.084132224 0.101064816 0.036138747 -0.051063966 -0.06351251 -0.11597245 -0.0028008232 0.101037934
0.017579999 0.029198663 -0.06887503 0.06428141 0.030781193 -0.044839002 -0.06910182 -0.05797583
-0.019148514 -0.018583933 -0.04238511 -0.04259247 0.015278024 0.06364009 0.03272522 0.036001895
-0.007123871 0.015153676 -0.0080038365 0.05267137 -0.01756731 0.012940708 0.036275346 -0.034265354
-0.03145073 -0.078904286 0.0474417 -0.075424515 -0.020576946 -0.0018092588 -0.0017297684 0.0266681
0.036689878 0.04558989 -0.012706037 -0.036546934 0.0009513558 -0.07859176 -0.009779185 0.058271028
0.0786718 -0.047038548 0.052573647 0.03670353 0.032619596 -0.050490096 -0.072274625 0.0009180815
0.0005925659 0.09897554 0.01633665 -0.055748187 -0.07952582 0.032509934 -0.067878045 0.043493062
-0.02810282 -0.058291327 -0.065261215 -0.04112235 -0.07655439 -0.04126379 -0.11742313 -0.058804225
0.053959828 0.024051731 -0.03381194 0.013292756 -0.02225735 0.023136199 0.033493746 -0.063540414
0.0034801026 -0.017489348 -0.00018902887 0.00410627 -0.00021575025 -0.0075370274 -0.07609674 -0.022861319
0.07318139 -0.031191861 -0.029054716 -0.06006743 0.049574394 -0.0064681266 -0.035967242 -0.0431543
-0.0498534 -0.02738515 -0.049795214 -0.07913008 0.01627393 0.06310599 -0.04802953 -0.010723778
-0.12351156 0.047018025 -0.06496697 -0.0035946905 0.0060186298 0.09640738 0.049869694 -0.047163367
-0.022519121 0.07429736 -0.06525528 0.042915493 -0.027988201 0.06209854 -0.03871407 -0.069006205
-0.016444601 -0.023151936 0.030546268 -0.024714965 -0.0007386575 -0.051203515 -0.038911775 0.008100283
0.04996365 -0.03863451 0.02107995 -0.017362684 0.061513506 -0.0742289 -0.0066226595 0.052529786
0.036171354 0.017241243 -0.0557027 0.006321212 -0.025388267 0.093473114 0.027176462 -0.0817445
-0.002032764 -0.02077019 -0.08846476 0.041280758 -0.014289414 -0.014457896 0.0070946617 0.026154226
0.011584515 -0.07990603 0.025237443 -0.11429144 0.014936757 -0.07192921 -0.011903977 -0.020536551
-0.01914172 -0.07738071 0.01654735 0.079874985 -0.06613406 0.0064582676 0.06155058 0.04842721
-0.016155731 -0.051568963 0.10234205 -0.019276036 0.023325583 -0.023750614 -0.035846666 -0.04983215
0.015346857 -0.030371727 0.04872839 -0.052261893 0.06866385 0.030312305 0.0031116758 -0.024903337
-0.0013574418 -0.025211187 -0.0956149 0.014690216 0.028574362 0.019716343 -0.03540905 0.012131803
-0.07815711 -0.037804157 -0.035786603 0.0027672118 -0.0777998 0.039948512 -0.059247423 0.06838688
-0.06536114 0.0005620648 0.0015295211 0.090389244 -0.113260165 -0.0058271154 -0.030024394 0.120727085
0.07873483 -0.06810583 -0.02623838 -0.038338386 -0.03331135 0.04222277 -0.08626588 0.025279107
0.040670484 0.007950797 -0.02513574 0.05521706 -0.061057083 0.03195142 0.06740165 -0.00036141952
-0.0029571604 -0.033236105 0.08340062 0.016139181 -0.034983724 -0.02839662 0.037855327 0.059900798
0.047229864 -0.00134684 0.051029354 0.0064608185 0.043878563 0.004056912 0.030264338 0.015038819
0.009296852 0.052467845 -0.03451909 0.042142194 0.026662787 -0.025131483 0.0040921783 0.07692385
0.098020986 0.04142997 -0.02640782 0.005151023 0.02509168 -0.059276402 -0.0028092 0.032078315
00000000: 844d ac3d 12fb ce3d 3906 143d 7328 51bd
00000010: d912 82bd f782 edbd 048e 37bb faec ce3d
00000020: ee03 903c 0932 ef3c 5a0e 8dbd f9a5 833d
00000030: d728 fc3c 1aa9 37bd 4185 8dbd 1078 6dbd
00000040: 58dd 9cbc 553d 98bc 029c 2dbd 7175 2ebd
00000050: ad50 7a3c bc55 823d e10a 063d b976 133d
00000060: 5c6f e9bb 2047 783c 8622 03bc efbd 573d
00000070: 52e9 8fbc 4305 543c 7595 143d d459 0cbd
00000080: 7bd2 00bd 9298 a1bd 3a52 423d 2b78 9abd
00000090: fc90 a8bc a724 edba 65b9 e2ba 0f77 da3c
000000a0: 2048 163d 77bc 3a3d fb2c 50bc 3db2 15bd
000000b0: 6864 793a b7f4 a0bd e038 20bc 9aad 6e3d
000000c0: ae1e a13d 7eab 40bd 7757 573d 7156 163d
000000d0: 209c 053d b4ce 4ebd b804 94bd 68ab 703a
000000e0: 6d56 1b3a b0b3 ca3d 70d4 853c 3658 64bd
000000f0: 6fde a2bd 2329 053d a503 8bbd c825 323d
00000100: e337 e6bc e3c2 6ebd aca7 85bd e96f 28bd
00000110: 8cc8 9cbd 3804 29bd 8a7b f0bd b3dc 70bd
00000120: fb04 5d3d 2308 c53c 647e 0abd dcc9 593c
00000130: 0c55 b6bc 2088 bd3c bd30 093d 7a21 82bd
00000140: 6f12 643b d245 8fbc 0d36 46b9 e48d 863b
00000150: 043b 62b9 2bf9 f6bb 9cd8 9bbd a947 bbbc
00000160: 20e0 953d 1386 ffbc 2804 eebc 4409 76bd
00000170: 850e 4b3d 94f2 d3bb 6352 13bd 90c2 30bd
00000180: 1433 4cbd d256 e0bc 11f6 4bbd f40e a2bd
00000190: e850 853c b73d 813d 9dba 44bd c9b2 2fbc
000001a0: a1f3 fcbd f995 403d 670d 85bd e694 6bbb
000001b0: ed37 c53b 3c71 c53d 2a44 4c3d 602e 41bd
000001c0: 057a b8bc 3729 983d 8fa4 85bd 28c8 2f3d
000001d0: 8347 e5bc 0a5b 7e3d a592 1ebd 2053 8dbd
000001e0: d4b6 86bc 21a9 bdbc 2b3c fa3c 0a77 cabc
000001f0: 77a2 41ba c7ba 51bd f461 1fbd 0db7 043c
00000200: afa6 4c3d 383f 1ebd dcaf ac3c 303c 8ebc
00000210: 96f5 7b3d 5205 98bd e502 d9bb 7929 573d
00000220: 6a28 143d 823d 8d3c 8428 64bd 2b22 cf3b
00000230: 0efb cfbc d56e bf3d 2ca1 de3c a969 a7bd
00000240: 1f38 05bb 3f26 aabc 032d b5bd 0316 293d
00000250: 251e 6abc d0e0 6cbc 567a e83b 6341 d63c
00000260: facc 3d3c c6a5 a3bd c1be ce3c a111 eabd
00000270: 4db9 743c 9f4f 93bd e608 43bc 453c a8bc
00000280: 19cf 9cbc c779 9ebd 4f8e 873c 7f95 a33d
00000290: 4b71 87bd e09f d33b 761c 7c3d 9c5b 463d
000002a0: 0659 84bc fa39 53bd b598 d13d c7e8 9dbc
000002b0: 4b15 bf3c a690 c2bc f4d3 12bd cc1c 4cbd
000002c0: 6271 7b3c 21ce f8bc 6c97 473d 9110 56bd
000002d0: a29f 8c3d 8351 f83c 42ed 4b3b 1502 ccbc
000002e0: 30ec b1ba b187 cebc bfd1 c3bd 3baf 703c
000002f0: c814 ea3c 2b84 a13c 1409 11bd 78c4 463c
00000300: d610 a0bd 88d8 1abd f994 12bd 1c5a 353b
00000310: 8055 9fbd 0da1 233d 6dad 72bd 6c0e 8c3d
00000320: 10dc 85bd 8857 133a 367a c83a ff1d b93d
00000330: f2f4 e7bd 63f1 bebb b8f5 f5bc c33f f73d
00000340: ba3f a13d 127b 8bbd dff1 d6bc b608 1dbd
00000350: 7b71 08bd c9f1 2c3d 2aac b0bd 2116 cf3c
00000360: 1896 263d 0f44 023c 78e9 cdbc 492b 623d
00000370: fe16 7abd 7edf 023d e009 8a3d e87c bdb9
00000380: ebcc 41bb 9522 08bd f2cd aa3d 5136 843c
00000390: 184b 0fbd 07a0 e8bc 300e 1b3d 8a5a 753d
000003a0: 1a74 413d 7488 b0ba 2804 513d 46b5 d33b
000003b0: 02ba 333d d8ef 843b ebec f73c 6165 763c
000003c0: d351 183c 86e8 563d e463 0dbd 4b9d 2c3d
000003d0: eb6b da3c 8ae0 cdbc ae17 863b 408a 9d3d
000003e0: 3abf c83d 79b2 293d 3655 d8bc eac9 a83b
000003f0: 118d cd3c d0cb 72bd 8e1a 38bb 8d64 033d

bias f4 [64]
-0.024191296 0.05172252 -0.024291076 -0.059209038 -0.022495583 -0.07158906 -0.059395734 0.033778675
0.020591304 -0.030285211 -0.055778667 0.015818764 0.0023491443 -0.03744629 0.024171032 -0.04254015
-0.027374951 -0.053348728 0.037879266 0.0077972612 -0.012949345 -0.007329463 -0.05591764 -0.046196535
-0.019326521 0.061752524 -0.04474082 -0.007405436 -0.029895492 0.033416063 -0.05499052 -0.045854878
0.06652648 0.0841671 0.0122732585 0.0020774717 0.0061632753 0.0077959257 0.052536096 0.031227583
-0.056113344 0.03814426 -0.050398123 -0.027768672 -0.02033644 0.023536496 0.041444 0.01825683
-0.014066164 -0.029386995 0.016727364 -0.03707201 0.020238305 0.011727857 0.008626202 -0.00802588
-0.036540657 -0.026507953 0.0146011 0.0075395987 0.07065921 -0.010562411 -0.0024609892 0.034602154
00000000: d32c c6bc feda 533d 14fe c6bc 2d85 72bd
00000010: a848 b8bc 499d 92bd f148 73bd 825b 0a3d
00000020: 18af a83c b118 f8bc 2c78 64bd 5a96 813c
00000030: 1af4 193b 4861 19bd 5402 c63c 953e 2ebd
00000040: 6f41 e0bc 3284 5abd 4a27 1b3d 2b80 ff3b
00000050: 7d29 54bc fe2b f0bb e509 65bd 9438 3dbd
00000060: a752 9ebc 37f0 7c3d 2642 37bd 4da9 f2bb
00000070: 64e7 f4bc 48df 083d bd3d 61bd 53d2 3bbd
00000080: 093f 883d cd5f ac3d c715 493c 3126 083b
00000090: 4df5 c93b f774 ff3b 1730 573d fdd0 ff3c
000000a0: 1bd7 65bd 283d 1c3d 436e 4ebd 207b e3bc
000000b0: 9b98 a6bc 9ccf c03c 2fc1 293d 598f 953c
000000c0: c575 66bc ffbc f0bc d307 893c d2d8 17bd
000000d0: cdca a53c 3326 403c ea54 0d3c fb7e 03bc
000000e0: a8ab 15bd 3527 d9bc 7439 6f3c bd0e f73b
000000f0: c7b5 903d f60d 2dbc 8c48 21bb fdba 0d3d

weight f4 [64, 64, 3]
0.00033801858 -0.0060732826 -0.0032936628 -0.010181662 -0.06598582 0.018931247 0.035394475 -0.056011077
0.035631992 -0.079843014 -0.0054353196 -0.029084383 -0.034320235 -0.038960055 -0.0034299463 0.012130029
-0.028565891 -0.029068038 -0.034422047 -0.08333437 0.07150966 -0.042513177 -0.0648218 -0.060761202
0.029314958 -0.071189426 0.03870796 0.029505886 0.04925196 -0.042916313 0.03333251 0.043056704
0.04299807 0.0408522 0.013168005 0.048833445 -0.06795319 0.012696749 -0.03435322 -0.06856718
0.033862207 -0.07270374 -0.08091156 0.059720263 -0.06593913 -0.0031224892 0.028415786 0.055050295
-0.07136088 -0.03546345 0.029227486 -0.06265717 -0.078338556 -0.06634312 -0.02382012 -0.07185861
-0.006768073 -0.08803883 0.02277743 -0.0011571657 0.041946635 -0.025380766 0.050512545 -0.033656858
-0.074071474 -0.020687586 -0.07559112 0.013699325 0.025127126 -0.044011243 -0.041512292 0.029231096
0.04834775 -0.079650804 -0.06365992 0.055908788 -0.055287417 -0.026257696 -0.033915088 -0.085016824
-0.0025827952 -0.011905591 0.032181773 0.006495947 0.039171252 0.04582319 0.03814785 0.036138166
0.022354338 0.03140559 -0.07335044 -0.018220901 -0.033273138 -0.0010804472 0.002677454 -0.033705495
-0.08167521 0.019675868 -0.06183064 -0.06197034 0.050275963 -0.050883573 -0.046251222 0.03863414
0.013659985 0.039254572 0.06547181 -0.03524791 -0.06548488 0.023230465 0.012549452 -0.08082529
-0.10288819 0.02600796 0.0027318886 -0.054270558 -0.070002265 -0.0131773865 -0.046018966 -0.060941327
-0.02662965 0.007681326 -0.046093915 -0.039157227 0.074119136 0.017005147 0.06878267 0.032021154
-0.04065555 -0.084294535 -0.051085383 0.02168771 -0.03873224 -0.07949641 0.008792817 0.05844294
0.043048315 0.05175676 0.04846818 -0.06213335 -0.006221886 0.0017605026 -0.021950625 -0.04267472
-0.04126623 -0.037952423 -0.06189799 -0.04803205 -0.073320426 -0.009170459 -0.024998982 -0.056829315
0.015355319 -0.02617329 -0.054084286 0.06783912 -0.07111007 0.007887026 -0.025913805 -0.056386065
0.029086186 0.018269278 0.07384987 0.036021087 -0.019415703 -0.015597036 0.055260297 0.01601349
-0.07638254 -0.03885047 -0.011366578 -0.03471117 -0.014444041 -0.01757539 0.029894706 0.047086656
0.037912756 -0.09383244 -0.049984284 -0.00059789047 -0.044694673 -0.043474346 -0.009651289 0.010259693
-0.06409595 0.03503968 0.04036569 0.051381446 0.021566106 -0.020024473 0.037726734 0.02110635
0.06976389 0.00037299492 -0.033857908 -0.024731997 -0.02597483 0.019288357 -0.055097513 0.066800445
0.023713725 -0.051994383 0.060394995 -0.010480315 -0.019604329 0.028973209 0.06435173 0.04950086
0.029707309 -0.058113027 0.005270654 -0.038864065 0.0872426 -0.036063425 -0.02578826 0.06771622
4.035671e-05 0.014775482 0.05307678 0.069022104 0.041508336 0.0139402645 0.013754726 0.057227492
0.038411397 -0.052328825 -0.031082023 -0.05051991 0.04742018 0.048234295 0.028451154 0.011147285
-0.028987678 0.06061406 0.04757332 -0.01839082 -0.020180995 -0.008947084 0.02700997 0.11327639
-0.024799317 -0.029321887 -0.010874713 0.06484073 0.06023909 0.0514019 -0.059606522 0.05498869
-0.040066283 0.066404425 0.0933125 -0.010616716 -0.03961222 0.05220692 0.0303826 -0.035121612
00000000: 1638 b139 6302 c7bb 7eda 57bb fcd0 26bc
00000010: 9323 87bd b415 9b3c ccf9 103d df6b 65bd
00000020: daf2 113d bc84 a3bd c41a b2bb 5f42 eebc
00000030: 6093 0cbd 9494 1fbd f3c8 60bb 07bd 463c
00000040: 0403 eabc 1820 eebc 22fe 0cbd 36ab aabd
00000050: a873 923d 4c22 2ebd 4bc1 84bd bde0 78bd
00000060: ec25 f03c c3cb 91bd 3d8c 1e3d 54b6 f13c
00000070: 6cbc 493d 04c9 2fbd ac87 083d 3a5c 303d
00000080: bf1e 303d a354 273d 9ebe 573c 9405 483d
00000090: 0b2b 8bbd 0606 503c f6b5 0cbd f36c 8cbd
000000a0: 19b3 0a3d b3e5 94bd f6b4 a5bd 3c9d 743d
000000b0: 180b 87bd ada2 4cbb 39c8 e83c 6b7c 613d
000000c0: a725 92bd 1f42 11bd 7b6e ef3c 6752 80bd
000000d0: f76f a0bd e7de 87bd 6a22 c3bc 9b2a 93bd
000000e0: b6c6 ddbb b44d b4bd bc97 ba3c 0aac 97ba
000000f0: 3cd0 2b3d 53eb cfbc 3ee6 4e3d c6db 09bd
00000100: c9b2 97bd 0379 a9bc 84cf 9abd 2273 603c
00000110: 67d7 cd3c 2245 34bd cb08 2abd 0d76 ef3c
00000120: 4a08 463d f61f a3bd 2260 82bd 9d00 653d
00000130: 0f75 62bd 611a d7bc 8cea 0abd 4d1d aebd
00000140: 1d44 29bb ab0f 43bc 09d1 033d f4db d43b
00000150: 0972 203d 19b1 3b3d ec40 1c3d 9d05 143d
00000160: 7220 b73c 26a3 003d c138 96bd 0044 95bc
00000170: 6a49 08bd cb9d 8dba 3978 2f3b c60e 0abd
00000180: 5545 a7bd 492f a13c 2042 7dbd 9cd4 7dbd
00000190: 2bee 4d3d 4b6b 50bd ec71 3dbd d53e 1e3d
000001a0: 21ce 5f3c 67c9 203d 1616 863d 1d60 10bd
000001b0: f01c 86bd d14d be3c 379c 4d3c bb87 a5bd
000001c0: 0bb7 d2bd a50e d53c 7c09 333b ce4a 5ebd
000001d0: 595d 8fbd f7e5 57bc 627e 3cbd 9d9d 79bd
000001e0: 6c26 dabc a2b3 fb3b f9cc 3cbd 5463 20bd
000001f0: c6cb 973d 614e 8b3c eedd 8c3d 9d28 033d
00000200: 6f86 26bd 9da2 acbd e83e 51bd 6daa b13c
00000210: b3a5 1ebd 04cf a2bd bf0f 103c dd61 6f3d
00000220: 6e53 303d e5fe 533d 9286 463d 8a7f 7ebd
00000230: f6e0 cbbb aac0 e63a ccd1 b3bc b0cb 2ebd
00000240: c706 29bd 0074 1bbd bf88 7dbd 41bd 44bd
00000250: 0529 96bd b13f 16bc aaca ccbc dbc5 68bd
00000260: e094 7b3c 5e69 d6bc 7c87 5dbd 3def 8a3d
00000270: 28a2 91bd 9638 013c 3049 d4bc 13f5 66bd
00000280: 2746 ee3c 74a9 953c 9a3e 973d d98a 133d
00000290: ae0d 9fbc b68a 7fbc 9f58 623d b92e 833c
000002a0: 736e 9cbd ac21 1fbd e23a 3abc 4d2d 0ebd
000002b0: b3a6 6cbc 44fa 8fbc bee5 f43c f0dd 403d
000002c0: 684a 1b3d 392b c0bd 52bc 4cbd c0bb 1cba
000002d0: c311 37bd 2812 32bd 7120 1ebc 4518 283c
000002e0: bd44 83bd c485 0f3d 7e56 253d 5a75 523d
000002f0: 67ab b03c 5d0a a4bc 5987 1a3d 39e7 ac3c
00000300: 5fe0 8e3d 888e c339 97ae 0abd c29a cabc
00000310: 2bc9 d4bc 9e02 9e3c eead 61bd acce 883d
00000320: 4943 c23c 10f8 54bd be60 773d a1b5 2bbc
00000330: 4299 a0bc 3959 ed3c d7ca 833d 6ac1 4a3d
00000340: be5c f33c ed07 6ebd 73b5 ac3b ed2f 1fbd
00000350: 40ac b23d 3eb7 13bd e741 d3bc cdae 8a3d
00000360: b044 2938 dd14 723c 0a67 593d 765b 8d3d
00000370: a504 2a3d b565 643c 815b 613c 6067 6a3d
00000380: 4555 1d3d c056 56bd ba9f febc f7ed 4ebd
00000390: aa3b 423d 5391 453d 6512 e93c 1aa3 363c
000003a0: 9177 edbc 7346 783d 3edc 423d 58a8 96bc
000003b0: 9d52 a5bc ca96 12bc 0344 dd3c 74fd e73d
000003c0: f027 cbbc 7434 f0bc da2b 32bc 37cb 843d
000003d0: 44bd 763d cc8a 523d f825 74bd d23b 613d
000003e0: 8b1c 24bd 0bff 873d a01a bf3d bcf1 2dbc
000003f0: 6c40 22bd ecd6 553d eee4 f83c aedb 0fbd

bias f4 [64]
-0.07816116 0.046968743 0.034587033 0.022678027 0.0451988 0.024814008 -0.056437522 0.015103296
-0.03860103 -0.05067836 -0.036247306 -0.02786488 0.069347166 0.060061444 0.045400504 0.009669058
0.007735897 0.025409738 -0.019137451 0.023954108 0.018143635 0.00068427756 0.053678405 0.040143065
0.013111853 -0.028351886 -0.06311979 -0.049932756 -0.0632334 0.018569978 0.08524272 -0.011289606
0.017271984 0.052743983 -0.055616286 0.07074133 0.009924994 0.050706264 0.021198314 0.0142497225
-0.012691968 -0.008640437 -0.070501715 0.041921575 0.06902604 0.07680506 0.04257308 -0.022866067
-0.065195665 0.02946452 0.044890612 -0.045750573 -0.08220846 0.009521117 0.04323921 -0.056239843
-0.0038827432 0.024962595 0.022355651 -0.017923176 0.010139075 0.017930057 -0.02318143 -0.016407212
00000000: f512 a0bd 4c62 403d 22ab 0d3d 45c7 b93c
00000010: 6022 393d bf46 cb3c 082b 67bd d173 773c
00000020: 1d1c 1ebd 1d94 4fbd 0e78 14bd e444 e4bc
00000030: e305 8e3d fd02 763d e1f5 393d f86a 1e3c
00000040: 687d fd3b 1528 d03c 25c6 9cbc 683b c43c
00000050: f6a1 943c 1761 333a e3dd 5b3d 0e6d 243d
00000060: 19d3 563c 3742 e8bc f344 81bd 4a86 4cbd
00000070: 8380 81bd 1120 983c bc93 ae3d 0af8 38bc
00000080: fa7d 8d3c 130a 583d e7cd 63bd d5e0 903d
00000090: 719c 223c 5fb1 4f3d 16a8 ad3c ab77 693c
000000a0: f9f1 4fbc 9f90 0dbc 3463 90bd f5b5 2b3d
000000b0: 865d 8d3d f94b 9d3d 1c61 2e3d 9e51 bbbc
000000c0: 4e85 85bd 945f f13c 38df 373d f464 3bbd
000000d0: e95c a8bd 76fe 1b3c 991b 313d c05b 66bd
000000e0: 9f75 7ebb 5b7e cc3c 3323 b73c a0d3 92bc
000000f0: 5d1e 263c 0ee2 923c fbe6 bdbc 6b68 86bc

weight f4 [64, 64, 3]
-0.009644236 0.06867928 0.05071405 -0.09138719 -0.022124533 -0.06923677 -0.07891425 -0.0931254
0.015385476 0.047526073 -0.02343226 0.095805414 -0.010016515 -0.056149207 -0.07332159 0.023224127
-0.021113914 0.037621394 -0.10315804 -0.08694318 -0.03382607 0.041712236 -0.03349352 0.038967565
-0.008639961 -0.020931877 0.033962354 0.054345146 0.060727082 0.005220583 -0.08995805 -0.0153348
-0.11611641 0.0047254576 -0.056762338 -0.063125275 -0.1298293 0.019858494 -0.037689578 0.08528361
-0.00697411 -0.040941853 -0.062811814 0.019692421 -0.051037256 -0.058338694 -0.08495388 -0.11000502
-0.062449843 -0.02306199 -0.109434076 0.0022712345 0.009225877 0.072660364 0.019062592 -0.010830764
-0.008538178 0.0154838925 -0.04085285 -0.003540901 0.06447763 -0.018562175 -0.038326066 -0.021234643
0.053506687 -0.053987235 0.06401129 0.022978988 -0.033438064 -0.00648426 0.021187896 0.0029308985
0.10141165 0.0050111087 0.08603536 0.0908257 0.04234312 0.049122553 -0.04581233 -0.040123984
0.015771026 -0.007308525 0.009004357 0.0039941394 -0.115194604 -0.06081252 -0.031159695 -0.055867687
-0.026011024 -0.02360081 -0.0405851 -0.016558772 -0.0060032606 -0.05724507 0.023454003 -0.034067165
-0.03327054 0.021689828 0.04579177 -0.048433572 0.0065998626 0.05804316 -0.08422158 0.035808567
-0.048555516 0.015744664 -0.013845275 0.07640183 0.015743911 -0.045301136 0.052558195 -0.0065668225
-0.01263481 -0.0025809987 0.0806815 0.024317821 0.057093818 0.05537713 -0.002972472 -0.049382377
-0.065915234 -0.08743678 0.0033646359 0.0022042007 -0.041600104 0.036425874 -0.083819285 -0.050726593
0.020149592 0.10584382 -0.08394775 0.050919026 0.0005879217 -0.02975773 0.01622572 -0.0013557883
-0.064820245 -0.06572268 0.030476853 -0.059170563 -0.11236105 0.08299349 -0.03797215 -0.018409481
0.05913749 -0.040498834 -0.021057049 -0.06879151 -0.03089443 -0.07619584 0.02813354 0.0042415713
0.05616897 -0.08324812 -0.031499267 -0.06499055 0.04385294 -0.044700444 0.040071845 -0.034260474
-0.060037494 -0.002634159 -0.04895961 0.0063299425 0.02199279 0.03796313 -0.040876824 -0.0121706715
-0.089955986 -0.07488711 -0.053619996 -0.04653169 0.065112695 -0.009328234 -0.034648113 -0.032855306
0.027364362 -0.03956969 -0.09544928 -0.09258347 -0.0072162165 0.08136762 -0.089301586 0.02862002
-0.052304007 -0.027636923 0.018683475 -0.07472403 0.077800386 -0.05085317 -0.0063642776 -0.020376775
0.04556279 -0.0008962601 -0.05195587 -0.0045272917 0.016593883 0.039519496 0.046027582 -0.06298543
0.042105608 -0.0052024308 0.029814828 -0.06602239 -0.01907235 -0.04171667 -0.0589357 -0.053072356
-0.055451103 -0.017324483 -0.057709314 0.014453715 -0.0061502582 0.04931554 0.037998047 0.027263923
-0.092695 -0.08678832 0.042945784 -0.03440587 0.08369236 -0.015819686 0.0059507233 -0.0051905885
0.037322864 -0.05157657 -0.06415499 -0.008165285 0.007139397 0.032331306 -0.017942198 -0.09420714
-0.03701619 0.018090721 0.012277721 -0.00025914307 -0.06489505 0.034917857 0.00082771934 0.019343423
0.083649196 0.053435624 0.0069173127 -0.04134146 0.04160292 0.050318588 0.0062639266 -0.0037700955
-0.031925578 0.027971823 0.032347236 -0.04632208 -0.028811486 -0.030004911 0.024937406 -0.027510485
00000000: dc02 1ebc b9a7 8c3d 89b9 4f3d 3529 bbbd
00000010: 823e b5bc 02cc 8dbd cb9d a1bd 88b8 bebd
00000020: 5d13 7c3c b3aa 423d 03f5 bfbc a135 c43d
00000030: 4f1c 24bc b6fc 65bd a129 96bd 8640 be3c
00000040: 16f7 acbc e418 1a3d 8644 d3bd 440f b2bd
00000050: 358d 0abd 73da 2a3d 8030 09bd 749c 1f3d
00000060: 9f8e 0dbc 5479 abbc 1c1c 0b3d 0499 5e3d
00000070: f6bc 783d 6d11 ab3b ed3b b8bd d03e 7bbc
00000080: 71ce edbd 03d8 9a3b a07f 68bd d347 81bd
00000090: f9f1 04be 48ae a23c 6360 1abd 2ca9 ae3d
000000a0: 1387 e4bb a5b2 27bd 7ba3 80bd 0052 a13c
000000b0: 710c 51bd 8ef4 6ebd 4dfc adbd 504a e1bd
000000c0: 68cb 7fbd 80ec bcbc f91e e0bd fed8 143b
000000d0: 2228 173c f5ce 943d 2729 9c3c 8473 31bc
000000e0: b7e3 0bbc 27b0 7d3c 5155 27bd 760e 68bb
000000f0: d90c 843d b40f 98bc cbfb 1cbd 46f4 adbc
00000100: d429 5b3d b821 5dbd 5a18 833d 6e3e bc3c
00000110: 5af6 08bd ea79 d4bb 3d92 ad3c 5114 403b
00000120: e9b0 cf3d 3a34 a43b 4f33 b03d d302 ba3d
00000130: fb6f 2d3d bb34 493d b6a5 3bbd 0c59 24bd
00000140: 3d32 813c 5a7c efbb 0387 133c 45e1 823b
00000150: 26eb ebbd 8d16 79bd 9e42 ffbc 84d5 64bd
00000160: 1215 d5bc 7c56 c1bc 903c 26bd 43a6 87bc
00000170: 00b7 c4bb ce79 6abd 9c22 c03c 038a 0bbd
00000180: b146 08bd deae b13c 2790 3b3d 4862 46bd
00000190: a943 d83b aabe 6d3d 5d7c acbd 01ac 123d
000001a0: 26e2 46bd f4fa 803c 4bd7 62bc 9078 9c3d
000001b0: 60f9 803c af8d 39bd 4347 573d 802e d7bb
000001c0: 3c02 4fbc f925 29bb 583c a53d 2b36 c73c
000001d0: 35db 693d 21d3 623d cecd 42bb 2d45 4abd
000001e0: 91fe 86bd 0e12 b3bd 3981 5c3b 5a74 103b
000001f0: df64 2abd 4c33 153d 72a9 abbd b0c6 4fbd
00000200: c210 a53c a5c4 d83d ccec abbd 7890 503d
00000210: c21e 1a3a 7cc6 f3bc cdeb 843c b5b4 b1ba
00000220: 7ac0 84bd 9d99 86bd 98aa f93c d55c 72bd
00000230: 8d1d e6bd 7ef8 a93d af88 1bbd 7bcf 96bc
00000240: 273a 723d 1be2 25bd d57f acbc 90e2 8cbd
00000250: 5116 fdbc 910c 9cbd 4f78 e63c e1fc 8a3b
00000260: 6f11 663d fe7d aabd 6005 01bd c419 85bd
00000270: 249f 333d d017 37bd 6022 243d b654 0cbd
00000280: e0e9 75bd dba1 2cbb df89 48bd 686b cf3b
00000290: 392a b43c 3a7f 1b3d 756e 27bd 7f67 47bc
000002a0: d83a b8bd 6a5e 99bd a4a0 5bbd 0398 3ebd
000002b0: ce59 853d 73d5 18bc 2eeb 0dbd 4993 06bd
000002c0: 3a2b e03c d413 22bd ea7a c3bd 679c bdbd
000002d0: 0376 ecbb 11a4 a63d c0e3 b6bd 8874 ea3c
000002e0: ba3c 56bd d466 e2bc 160e 993c ea08 99bd
000002f0: cf55 9f3d 6a4b 50bd 6e8b d0bb 32ed a6bc
00000300: 0ca0 3a3d fff2 6aba aecf 54bd ad59 94bb
00000310: e5ef 873c 32df 213d 6b87 3c3d 81fe 80bd
00000320: ee76 2c3d 2779 aabb 3a3e f43c bf36 87bd
00000330: 9e3d 9cbc 19df 2abd 9066 71bd 6662 59bd
00000340: b220 63bd 13ec 8dbc 9a60 6cbd 46cf 6c3c
00000350: 1b88 c9bb 17ff 493d d7a3 1b3d 9758 df3c
00000360: e0d6 bdbd 13be b1bd ebe7 2f3d 2bed 0cbd
00000370: e666 ab3d 4998 81bc 49fe c23b d015 aabb
00000380: dcdf 183d f441 53bd b163 83bd b0c7 05bc
00000390: 9af1 e93b d56d 043d 84fb 92bc acef c0bd
000003a0: 4a9e 17bd fe32 943c 7f28 493c 98dd 87b9
000003b0: b2e7 84bd 0706 0f3d 4efb 583a 1976 9e3c
000003c0: 4550 ab3d 50df 5a3d a0aa e23b aa55 29bd
000003d0: d367 2a3d dd1a 4e3d a041 cd3b b513 77bb
000003e0: 65c4 02bd 2a25 e53c 897e 043d 39bc 3dbd
000003f0: 1106 ecbc dccc f5bc 8849 cc3c ab5d e1bc

bias f4 [64]
0.038177945 0.016239893 -0.019470263 0.011175746 0.061768167 -0.036307294 0.03432563 -0.07076816
0.017875753 0.019030128 -0.07593866 -0.026585044 -0.044913255 0.08004556 0.07106576 -0.06951657
0.040530045 -0.0632492 -0.048710294 -0.02582612 -0.062220905 -0.06754492 0.057502765 0.023581423
-0.0031857034 0.048668653 -0.050899833 0.054747075 -0.022319166 0.0395646 0.05286153 -0.051904883
0.023234883 0.05204239 -0.0055832574 -0.07458241 0.028790945 -0.06355342 0.0017208724 -0.052550282
0.0513509 0.06115665 -0.03532082 -0.058110416 -0.01816006 0.019145837 -0.06348683 -0.07205233
-0.06768503 0.04019803 0.04550692 -0.006095832 -0.035384156 -0.009025495 -0.07638757 -0.04274676
0.054930005 0.050271336 -0.010661416 0.057682667 0.012246946 0.011034071 -0.07634363 -0.062304992
00000000: 7a60 1c3d 8609 853c 1a80 9fbc 7a1a 373c
00000010: 9e00 7d3d f5b6 14bd 0899 0c3d e6ee 90bd
00000020: 2c70 923c 12e5 9b3c ba85 9bbd e1c8 d9bc
00000030: f6f6 37bd edee a33d ed8a 913d b45e 8ebd
00000040: d502 263d cc88 81bd 7284 47bd 4d91 d3bc
00000050: 59db 7ebd fe54 8abd 0588 6b3d d42d c13c
00000060: 3cc7 50bb c858 473d 587c 50bd 783e 603d
00000070: afd6 b6bc 7d0e 223d 5585 583d 379a 54bd
00000080: 1557 be3c 672a 553d c2f3 b6bb aabe 98bd
00000090: fdda eb3c 4c28 82bd e58e e13a f73e 57bd
000000a0: 5255 523d 657f 7a3d 90ac 10bd 3005 6ebd
000000b0: 68c4 94bc bbd7 9c3c 6205 82bd 2c90 93bd
000000c0: 739e 8abd b1a6 243d 7765 3a3d 8cbf c7bb
000000d0: faee 10bd abdf 13bc 1671 9cbd 3a17 2fbd
000000e0: 49fe 603d 51e9 4d3d 38ad 2ebc a944 6c3d
000000f0: 6aa7 483c 40c8 343c 0d5a 9cbd 8533 7fbd

weight f4 [100, 64]
-0.07762435 0.0031588387 -0.005370523 -0.08305212 -0.038955204 -0.06086096 -0.077252865 -0.113946594
0.059461173 -0.0220744 -0.08168548 0.03133894 -0.1299675 0.067423925 -0.041733176 -0.026452875
-0.028181331 -0.011953023 -0.015200867 -0.039461736 -0.07174836 0.10527727 0.0587107 -0.056312054
-0.090499975 0.105007485 -0.017475642 -0.01266071 -0.040254574 -0.0022658303 0.08639681 0.07451653
-0.058017783 -0.061194777 0.06987994 -0.10611481 -0.05440742 0.04663013 0.103311926 -0.009480572
-0.11559537 0.06437118 0.022318583 -0.062235292 -0.09903912 -0.08786522 0.043092687 -0.025147012
0.0070544104 -0.046472494 -0.09995495 -0.10944792 -0.036629956 0.08675204 9.549573e-05 -0.044019915
0.0029077707 0.09881525 -0.10776705 0.015325362 0.033609238 -0.011784883 0.08313773 -0.11957025
-0.012461119 -0.04572366 -0.1325355 0.06958033 0.06259281 -0.05098601 0.08429402 -0.0003184661
0.07383015 -0.02932216 0.076958545 0.13524376 0.13209613 0.06742039 -0.1041378 -0.16459307
-0.0786064 0.05131859 -0.11822126 0.031252716 0.077989176 -0.015057158 0.020589704 0.07212312
0.010282965 -0.015723074 0.034591116 -0.12198949 0.0208936 -0.11370423 0.05630284 -0.013628166
0.07427674 -0.08234632 0.1363039 -0.10398899 0.07105669 0.12614545 0.103609666 0.058315527
-0.12457865 0.030725628 0.11364109 0.07888039 0.022165395 0.0525004 -0.08045603 0.10809725
0.011517353 0.043864623 -0.064863354 0.03373555 0.0825163 0.096665025 0.023676783 -0.07526527
-0.041376803 0.09896558 0.04671937 -0.13402544 -0.07490323 0.021610143 0.0054506143 0.0009236724
0.067233056 -0.017477944 -0.106175765 -0.073531404 0.06015578 -0.12314543 0.066128924 -0.04297188
-0.046496734 0.0802183 -0.02701956 -0.091909185 -0.02148053 -0.03460665 -0.101293355 0.08022396
-0.0761818 -0.122823045 -0.05408284 0.026741758 -0.10279511 0.005693406 -0.100870535 -0.06940727
-0.121599585 -0.04522583 -0.11156504 -0.00800319 0.120094106 -0.0017183572 0.066069275 -0.115330845
-0.042166293 -0.0071291775 0.03617677 -0.07666007 -0.103115305 -0.07772812 0.035033584 -0.076970816
-0.0003170222 -0.0035433322 -0.05136147 0.0882227 0.10897958 -0.1041749 0.06767839 0.0037520528
0.052821502 -0.12414682 0.0026727766 -0.032381922 -0.11926006 -0.09329869 -0.042804807 -0.045186818
-0.11432639 -0.11470902 0.08930884 -0.020024583 -0.09698811 -0.03645648 0.017556965 0.065356985
0.03944011 0.027096938 0.05949874 -0.028371874 0.063722946 0.004486847 0.10556835 0.083607465
-0.06267985 -0.067434825 0.012572082 -0.106060565 -0.0670045 -0.0011741001 0.067757875 -0.11321648
-0.016254509 0.032819264 -0.08873325 0.0034606701 -0.109448925 -0.022870777 -0.017990028 -0.11288053
0.025263015 -0.07118595 -0.13246419 -0.04576888 -0.037738584 0.06915788 -0.10712009 -0.07502798
-0.094318815 0.037031837 -0.12925118 -0.0043870304 -0.04293698 -0.103254095 -0.13223377 -0.0042328513
-0.0133635355 0.014671665 -0.007906682 0.114565834 -0.048262842 -0.00042675005 -0.08101606 -0.058415893
-0.052550644 0.09095897 -0.07143872 0.08272611 -0.022358231 -0.024065956 0.0004194641 -0.12931518
0.05183653 -0.08509342 -0.12511064 -0.11862343 0.0056585446 0.11510409 -0.052444223 -0.03537766
00000000: 84f9 9ebd 8504 4f3b 36fb afbb 3b17 aabd
00000010: 7e8f 1fbd 5849 79bd c036 9ebd d55c e9bd
00000020: 8f8d 733d 5fd5 b4bc b84a a7bd 435d 003d
00000030: 3316 05be 8e15 8a3d 68f0 2abd b3b3 d8bc
00000040: 89dc e6bc 9dd6 43bc 0f0d 79bc a1a2 21bd
00000050: cef0 92bd 9c9b d73d a27a 703d 78a7 66bd
00000060: 0d58 b9bd 2a0e d73d 1429 8fbc de6e 4fbc
00000070: fbe1 24bd 537e 14bb d0f0 b03d 1f9c 983d
00000080: 0ea4 6dbd 60a7 7abd 371d 8f3d b952 d9bd
00000090: 51da 5ebd 3cff 3e3d 3495 d33d 6754 1bbc
000000a0: 44bd ecbd 0ad5 833d 76d5 b63c 6fea 7ebd
000000b0: 06d5 cabd aef2 b3bd f581 303d 1b01 cebc
000000c0: af28 e73b f159 3ebd 2eb5 ccbd 3b26 e0bd
000000d0: 4b09 16bd 0eab b13d e144 c838 3a4e 34bd
000000e0: 4c90 3e3b a65f ca3d f9b4 dcbd 3a17 7b3c
000000f0: d7a9 093d 6215 41bc 1d44 aa3d 3fe1 f4bd
00000100: b929 4cbc bc48 3bbd 63b7 07be 2280 8e3d
00000110: a930 803d b5d6 50bd 58a2 ac3d ccf7 a6b9
00000120: 4334 973d 0735 f0bc 719c 9d3d 577d 0a3e
00000130: 3544 073e b413 8a3d 3346 d5bd 168b 28be
00000140: 64fc a0bd 7133 523d fd1d f2bd d902 003d
00000150: cab8 9f3d 4cb2 76bc bdab a83c 49b5 933d
00000160: e279 283c adcd 80bc 6aaf 0d3d a0d5 f9bd
00000170: 0e29 ab3c c3dd e8bd cf9d 663d ac48 5fbc
00000180: 671e 983d 30a5 a8bd 4093 0b3e 2ef8 d4bd
00000190: 2b86 913d 462c 013e 4e31 d43d 43dc 6e3d
000001a0: 1723 ffbd 50b4 fb3c a9bc e83d 0b8c a13d
000001b0: 3494 b53c a90a 573d 22c6 a4bd 1762 dd3d
000001c0: 48b3 3c3c 64ab 333d 14d7 84bd 4a2e 0a3d
000001d0: 4efe a83d 50f8 c53d d0f5 c13c ae24 9abd
000001e0: b97a 29bd 77ae ca3d cf5c 3f3d f73d 09be
000001f0: dd66 99bd c107 b13c 119b b23b 9b22 723a
00000200: 7cb1 893d e82d 8fbc ae72 d9bd a297 96bd
00000210: e865 763d ac33 fcbd 9a6e 873d 4803 30bd
00000220: 5c73 3ebd 7e49 a43d 2058 ddbc e23a bcbd
00000230: f0f7 afbc b4bf 0dbd e472 cfbd 764c a43d
00000240: 3405 9cbd a68a fbbd f885 5dbd 8811 db3c
00000250: 3e86 d2bd c08f ba3b 3695 cebd 6625 8ebd
00000260: 3409 f9bd b83e 39bd 367c e4bd d01f 03bc
00000270: e6f3 f53d 803a e1ba 544f 873d 9432 ecbd
00000280: 90b6 2cbd e09b e9bb 182e 143d f4ff 9cbd
00000290: 1e2e d3bd ec2f 9fbd 607f 0f3d e0a2 9dbd
000002a0: 0036 a6b9 4037 68bb 6860 52bd 1aae b43d
000002b0: b030 df3d a659 d5bd f89a 8a3d 00e5 753b
000002c0: 5c5b 583d b040 febd c029 2f3b e8a2 04bd
000002d0: 9e3e f4bd 6213 bfbd 1854 2fbd d015 39bd
000002e0: f423 eabd 90ec eabd 8ee7 b63d 980a a4bc
000002f0: b4a1 c6bd 6453 15bd a0d3 8f3c e2d9 853d
00000300: f48b 213d 66fa dd3c f3b4 733d 226c e8bc
00000310: 2d81 823d 6706 933b 3834 d83d 643a ab3d
00000320: 4b5e 80bd 451b 8abd 22fb 4d3c 4836 d9bd
00000330: a839 89bd 43e4 99ba a4c4 8a3d 0bde e7bd
00000340: 2d28 85bc 7e6d 063d c7b9 b5bd 69cc 623b
00000350: c226 e0bd 7f5b bbbc d35f 93bc e82d e7bd
00000360: 62f4 ce3c f0c9 91bd b1a4 07be 2678 3bbd
00000370: c693 1abd a6a2 8d3d c761 dbbd 45a8 99bd
00000380: 392a c1bd b2ae 173d 6c5a 04be 14c1 8fbb
00000390: b0de 2fbd e276 d3bd 4a68 07be bbb3 8abb
000003a0: bbf2 5abc 6c61 703c 078b 01bc 7ea1 ea3d
000003b0: 42af 45bd 6cbd dfb9 c0eb a5bd 8145 6fbd
000003c0: 583f 57bd b248 ba3d 774e 92bd 4f6c a93d
000003d0: 9c28 b7bc f825 c5bc 85eb db39 336b 04be
000003e0: 8b52 543d 7645 aebd 011d 00be d7f0 f2bd
000003f0: 506b b93b b1bb eb3d c1cf 56bd 2ae8 10bd

bias f4 [100]
-0.0074699717 -0.009647122 0.116346225 -0.060254224 0.13290697 0.03111154 -0.13310353 -0.017037584
0.08367517 0.03422543 -0.06421217 0.040477872 0.10602638 0.09070431 0.098440796 0.057075392
-0.0029449642 0.1167409 0.014751304 0.004246099 0.124919906 0.037580416 -0.018425489 -0.10959796
0.1305523 -0.111348055 -0.09954093 0.044337522 0.065788165 -0.06833704 0.07716646 -0.050305475
0.051680826 -0.0069582895 -0.13006547 0.0117286155 0.033904396 -0.008281535 0.1254494 0.10891103
0.030137148 0.04679065 0.039529353 0.08924326 -0.056169547 -0.08083339 0.109986916 -0.026985358
0.111392245 0.022430139 -0.11969229 -0.037186112 -0.07906587 0.11272101 -0.1059399 -0.039589096
-0.023401245 0.09050579 -0.103687584 0.02123997 0.090959325 0.0634511 0.05744587 -0.009903144
0.055849552 0.0071746805 -0.03963721 -0.010525542 0.021106921 0.0033236186 -0.11911689 -0.012392078
0.13614458 -0.11753226 0.060949866 -0.067782596 0.055710312 0.06357582 -0.05334168 -0.009133602
0.12426194 -0.06737873 -0.031736415 0.008087867 -0.04629481 0.06366864 -0.027848631 -0.10415674
-0.03949033 -0.0040688296 -0.013060083 -0.12327182 -0.05030133 -0.03344907 0.067098044 0.03203687
0.10729669 -0.055071253 0.025234899 0.029952
00000000: aac6 f4bb f60e 1ebc ee46 ee3d 22cd 76bd
00000010: c418 083e a1dd fe3c 4b4c 08be 6792 8bbc
00000020: e35d ab3d f72f 0c3d ac81 83bd 20cc 253d
00000030: 5c24 d93d 2ec3 b93d 549b c93d e3c7 693d
00000040: 4d00 41bb da15 ef3d 74af 713c dc22 8b3b
00000050: 02d6 ff3d eced 193d 0df1 96bc e574 e0bd
00000060: 81af 053e 730a e4bd 1ddc cbbd 439b 353d
00000070: f2bb 863d 4af4 8bbd 7309 9e3d 1d0d 4ebd
00000080: 46af 533d 5d02 e4bb e22f 05be 6129 403c
00000090: 56df 0a3d 46af 07bc cf75 003e bf0c df3d
000000a0: 2ee2 f63c 8da7 3f3d 88e9 213d 2cc5 b63d
000000b0: 0a12 66bd fa8b a5bd d240 e13d 6610 ddbc
000000c0: 9e21 e43d 69bf b73c 3b21 f5bd 7750 18bd
000000d0: 49ed a1bd 46da e63d 05f7 d8bd 2d28 22bd
000000e0: f8b3 bfbc 1a5b b93d 285a d4bd 72ff ad3c
000000f0: e248 ba3d a6f2 813d 5c4c 6b3d cc40 22bc
00000100: 80c2 643d 9519 eb3b a15a 22bd 5373 2cbc
00000110: 6ce8 ac3c 11d1 593b 8ef3 f3bd 2408 4bbc
00000120: 7c69 0b3e c1b4 f0bd 91a6 793d 9ad1 8abd
00000130: 7f30 643d 0a34 823d ce7c 5abd 1aa5 15bc
00000140: 0b7d fe3d dcfd 89bd 0bfe 01bd f982 043c
00000150: a09f 3dbd b464 823d d022 e4bc 2150 d5bd
00000160: 9dc0 21bd d153 85bb f5f9 55bc f075 fcbd
00000170: c408 4ebd e401 09bd b36a 893d 1839 033d
00000180: 5ebe db3d 6592 61bd 6bb9 ce3c e65d f53c

weight f4 [1, 100]
0.050739154 -0.077097945 0.015166533 0.06656651 -0.076161824 0.118512034 -0.084606335 -0.11901247
0.06926953 0.0857902 0.029807841 -0.06990636 -0.003911231 0.01386755 -0.023849547 -0.06379158
0.02652502 0.12078369 -0.108454645 -0.1348205 -0.06704075 0.062069356 0.08543231 0.045909967
0.14090751 -0.08493407 0.0008840743 -0.023411207 -0.07061422 -0.041611806 -0.09490075 0.08255809
-0.07525406 0.0021648998 -0.07876802 -0.0022583907 0.0084833875 -0.057382192 -0.124595895 0.124471895
0.0031851698 0.06940921 -0.05796703 0.12720492 0.076756656 -0.062467065 0.049626537 -0.021095444
0.08854342 0.04948425 -0.032919604 -0.03688166 -0.01230075 0.06982676 0.05791926 -0.12094548
0.09595419 -0.014189747 -0.08983155 0.10138166 -0.13700771 -0.12225348 0.06883958 -0.04317208
0.026785934 0.09961573 -0.007608026 0.080583066 0.07445892 -0.04042526 -0.07716826 -0.060073815
0.104267515 -0.061693616 -0.024368243 -0.09584235 0.0483577 0.039219536 -0.059598688 0.024446689
0.06185977 0.0967551 -0.016435483 0.0944647 0.08520896 -0.100072816 0.036314584 -0.071504764
-0.08302549 0.04136222 -0.12010188 -0.0051790043 -0.115938455 0.056942582 -0.14081788 0.11732708
0.037868004 0.11352543 0.04847073 0.1305222
00000000: dcd3 4f3d 87e5 9dbd 0d7d 783c 0654 883d
00000010: bbfa 9bbd 70b6 f23d 1646 adbd cfbc f3bd
00000020: 2fdd 8d3d c6b2 af3d 932f f43c 112b 8fbd
00000030: c929 80bb b834 633c 2060 c3bc 29a5 82bd
00000040: 004b d93c 705d f73d 781d debd 630e 0abe
00000050: a94c 89bd 703c 7e3d 23f7 ae3d 170c 3c3d
00000060: 0f4a 103e eaf1 adbd 39c1 673a dcc8 bfbc
00000070: 309e 90bd 2471 2abd 535b c2bd 3714 a93d
00000080: cd1e 9abd fee0 0d3b 2151 a1bd 8201 14bb
00000090: e8fd 0a3c 9709 6bbd 222c ffbd 1feb fe3d
000000a0: 48be 503b 6a26 8e3d d66e 6dbd 0242 023e
000000b0: 9832 9d3d 77dd 7fbd 3245 4b3d 5ad0 acbc
000000c0: 4156 b53d ffaf 4a3d b5d6 06bd 3911 17bd
000000d0: 1689 49bc 5501 8f3d bf3c 6d3d 44b2 f7bd
000000e0: a183 c43d 1d7c 68bc 9bf9 b7bd 30a1 cf3d
000000f0: c04b 0cbe 0860 fabd c4fb 8c3d 35d5 30bd
00000100: 2d6e db3c 5503 cc3d bf4c f9bb bc08 a53d
00000110: eb7d 983d f594 25bd 650a 9ebd f60f 76bd
00000120: 358a d53d 72b2 7cbd e99f c7bc fe48 c4bd
00000130: b912 463d aaa4 203d c11d 74bd 6c44 c83c
00000140: ac60 7d3d 8a27 c63d b5a3 86bc b576 c13d
00000150: 0982 ae3d faf2 ccbd 9abe 143d 1771 92bd
00000160: 4509 aabd 6e6b 293d f9f7 f5bd a3b4 a9bb
00000170: 2471 edbd a03c 693d 9032 10be 2e49 f03d
00000180: 7b1b 1b3d 0580 e83d 3f89 463d 9da7 053e
